…
:"https://localhost:8080/"},"id":"WBR57eqaaPl_","executionInfo":{"status":"ok","timestamp":1658832300479,"user_tz":-540,"elapsed":697,"user":{"displayName":"dayeon Kim","userId":"10050630958817967118"}},"outputId":"c766a804-8ed7-4ccf-c66f-2d1359e2121e"},"execution_count":26,"outputs":[{"output_type":"stream","name":"stdout","text":["Model: \"sequential\"\n","_________________________________________________________________\n"," Layer (type)                Output Shape              Param #   \n","=================================================================\n"," dense (Dense)               (None, 24)                120       \n","                                                                 \n"," dense_1 (Dense)             (None, 24)                600       \n","                                                                 \n"," dropout (Dropout)           (None, 24)                0         \n","                                                                 \n"," dense_2 (Dense)             (None, 12)                300       \n","                                                                 \n"," dense_3 (Dense)             (None, 12)                156       \n","                                                                 \n"," dropout_1 (Dropout)         (None, 12)                0         \n","                                                                 \n"," dense_4 (Dense)             (None, 6)                 78        \n","                                                                 \n"," dense_5 (Dense)             (None, 3)                 21        \n","                                                                 \n","=================================================================\n","Total params: 1,275\n","Trainable params: 1,275\n","Non-trainable params: 0\n","_________________________________________________________________\n"]}]},{"cell_type":"code","source":["import tensorflow\n","tensorflow.keras.utils.plot_model(model, 
…
